CNN_Mnistmodel.onnx (onnx, 274455 bytes, 6 tensors)

dense_2/kernel:0 f4 [256, 10]
00000000: 6354 c6bd 89d4 863e e378 8ebe 3e36 8c3e
00000010: 9746 763e bdb4 423e f1a0 99be e388 98bd
00000020: 6a86 7abe 7fd1 31bd 7121 283e 282a 533e
00000030: 061f f13d 9c34 eb3d 63f2 553e 191d 02be
00000040: 3269 c43d 338d 19bd 1024 b6be 1bcf 1a3e
00000050: 6f4f f03c 10e8 1b3e 9ec2 3b3d 3c7e 403e
00000060: 89ca e1be 27e4 123e a740 70bd 294e 12bc
00000070: a7bc 9c3d 593f ce3d c262 e03d 1c6d 5cbe
00000080: 6d60 62bd 4a09 f33d e309 2cbe e1e6 99bd
00000090: 1994 11be 9b7f 053e 5cdb 283e 3750 223d
000000a0: de11 2f3e 6cee 0abd ee02 193e 578b 5dbe
000000b0: bccd a3be 86ee 50be a7e8 09be ab48 8eba
000000c0: 6d6b df3c 52df 83be ca1f e13d c588 c7be
000000d0: 2bf7 35be 13e5 f1be e20e 17be 300e 243e
000000e0: 2f0c 4c3e cf06 c1bb 9e53 9cbe 98d3 193e
000000f0: 8c2a 613e 3415 423d f79c 9f3e 5dfe 7c3d
00000100: 96f4 34be e7be 403e 0fea 10be 5f5f 743e
00000110: e517 adbe d8bb 3ebe 5a4c ccbe 4e22 973c
00000120: b6fc f7bd f874 43be d834 543e e268 0d3b
00000130: fce8 1abf d14c cb3d 46d1 043d f2c5 e83d
00000140: 05fd 1cbe ce2e f4bd b9cb aa3d faf3 55be
00000150: 5188 3c3e 63d4 d9bb 4306 a53d 984f 833d
00000160: 1001 693e b25a 8fbd 9744 293d e50c f6be
00000170: ed45 113d f7dd 61be b92f f83d 9af1 b63d
00000180: de40 c63d f15a 4ebe 4910 a03d 5276 053e
00000190: 0389 39be b934 96be 080a 25be 9707 f63b
000001a0: 3aaa 87bd adff 0f3e 0b55 023c a6d2 973d
000001b0: c847 ca3d d50d 73bd 6c4a 153d 7322 d5bd
000001c0: fcb2 1d3e 8253 9dbe f017 b53d 2628 4c3d
000001d0: 7997 163e 7951 183e a9d3 3b3e 2d7a f3bd
000001e0: a76b 933d 06ca 59be 58c6 21be d38c be3e
000001f0: 6110 14bf 4652 a03e b703 673e ae11 fbbe
00000200: c62c 00bd 7b8a 00bf 223d ccbd 657c b8be
00000210: 0266 d8bd 0257 3dbd 1725 8f3d e265 eebd
00000220: 3f4b 813d eec6 8cbe 90c8 213e 4525 183e
00000230: 4937 22be b6fd 93bc 3041 583d a4e2 023d
00000240: 53b8 993d 010d 50bc 79c1 693d 37e3 94be
00000250: 7a36 bc3d f12d 8cbd 4a1f b5be a6ec 9d3d
00000260: ba4e 293e f53b 083d 7f3f 30be 0812 b9be
00000270: 86e9 2abe 93a5 f03d 3f5c db3d 19bf 84be
00000280: e841 883e a30f c2be 62f4 2abf 3c41 efbd
00000290: 948a d83d 5c0d 443e 17db c53e 8ca8 793e
000002a0: 87bc 47be 5aa3 babe bdca 9b3e b35d 1f3e
000002b0: 1b90 9cbe 7021 dfbe 082b 0bbd d2bf 4e3d
000002c0: 2466 883e bac8 a9bd c772 3e3e 22f0 90be
000002d0: b89a 37be bfa5 a53d e798 663e b60e ed3d
000002e0: ce33 5e3d a1db e0bd 8c6d 053d 78c5 e4bd
000002f0: c716 1cbe 15d7 b0bc 9a5e a93d 88d1 5fbd
00000300: 3a6d 0f3e 76bd f03d 5968 3cbe 4a6d 5e3e
00000310: 86a7 d9be 2614 ab3d ae92 acbd 038e 243e
00000320: af76 3c3d 1bee 00be 3cee db3c ec40 ec3d
00000330: 8f67 97be f41c 983d e925 e93d 9356 993d
00000340: c4f8 b63d 45c4 e3bd 9eea 84be 2750 bb3d
00000350: 0414 77ba a0ca 9d3e e37d c7be 2693 583d
00000360: 4c3c 85bd f090 493b c3cd bbbe eb3e 0bbe
00000370: e194 2fbe 970f ddbd d74c 3d3d 2b16 f43d
00000380: 1d3a e5be 2601 1e3e 6fb7 95bd ab9e 8e3d
00000390: 3e6c d83d 4063 eb3d 4d14 97be 7e3f 03be
000003a0: 5ad3 d63d ff25 10bd 2a47 5c3d 6c3f b5bd
000003b0: cd45 77be 8a8d 82bd cfeb e93d 9774 b03d
000003c0: f229 c93d ef7f b63d d47e 74be 2672 17be
000003d0: 6d12 0abd 3371 c0bc 8201 133c b42d eebc
000003e0: dbf1 a13d f3ff a83d 70ae febd 2432 563e
000003f0: d59f b23d e91d 5c3e 7e2f bf3d 9fde b1bc
-0.09684064 0.26334026 -0.27826604 0.27385134 0.24050365 0.19014259 -0.300056 -0.07447984
-0.24465337 -0.04341268 0.16419007 0.2062155 0.117734954 0.11484644 0.20893244 -0.12706412
0.09590377 -0.037488174 -0.35574389 0.15118067 0.029334752 0.15225244 0.0458399 0.18798155
-0.44099835 0.14344846 -0.058655407 -0.008929768 0.0765317 0.10070676 0.109563366 -0.21525997
-0.05526774 0.11867006 -0.16800646 -0.0751474 -0.14216651 0.13036959 0.16489929 0.03962728
0.1709666 -0.033918783 0.14942524 -0.21635185 -0.319929 -0.2040349 -0.13467656 -0.0010855397
0.027272904 -0.25756317 0.109923914 -0.38971534 -0.17770068 -0.47245082 -0.14751771 0.16021037
0.19926523 -0.005890704 -0.30532545 0.15022123 0.21988887 0.047383502 0.31174442 0.061766017
-0.17671427 0.18822823 -0.14151786 0.23864506 -0.33807293 -0.18626344 -0.39902002 0.018448975
-0.12108748 -0.19087589 0.20723283 0.0021577408 -0.60511756 0.09926761 0.03242614 0.1136588
-0.15330894 -0.1192299 0.08339638 -0.20893851 0.18411376 -0.006647633 0.08057835 0.06411666
0.22754312 -0.06999721 0.041325178 -0.48056713 0.035467077 -0.22057329 0.121184774 0.089328006
0.09680341 -0.20151879 0.07815606 0.13033417 -0.18118672 -0.293371 -0.16117108 0.007508229
-0.06624265 0.14062376 0.007954846 0.07413225 0.098769724 -0.059339363 0.036447927 -0.10406961
0.15400308 -0.30727774 0.08842456 0.049842976 0.1470622 0.1487483 0.1834246 -0.118885376
0.071982674 -0.21268472 -0.15798318 0.37216815 -0.5783749 0.3131277 0.22560011 -0.49036926
-0.0312927 -0.50211304 -0.09972598 -0.36032405 -0.105663314 -0.046225555 0.06989496 -0.11640526
0.0631318 -0.2749552 0.15799165 0.14857967 -0.15841402 -0.018065315 0.052796543 0.031954423
0.0750586 -0.012698413 0.057069276 -0.290796 0.09190078 -0.068447 -0.35375434 0.07711153
0.16533938 0.033260304 -0.17211722 -0.3614657 -0.16690645 0.11750331 0.10710954 -0.25927046
0.26612782 -0.37902555 -0.6677915 -0.11682364 0.10573307 0.19145721 0.38643715 0.24380702
-0.19505511 -0.36452752 0.30428115 0.15563087 -0.30578694 -0.43580198 -0.033976585 0.050475903
0.26640427 -0.08290239 0.18598472 -0.28308207 -0.17930114 0.08088254 0.22519265 0.115750715
0.054248624 -0.10979391 0.032575175 -0.11170477 -0.15243064 -0.021586934 0.08269997 -0.054643184
0.1400651 0.11754887 -0.1839918 0.21721378 -0.42510623 0.083534524 -0.084264144 0.16069798
0.046011623 -0.1259083 0.026846997 0.1153582 -0.29571196 0.07427397 0.11384184 0.07487216
0.08934167 -0.1112142 -0.2596025 0.09146147 -0.0009425285 0.30818653 -0.3896323 0.052874707
-0.06505641 0.0030756555 -0.3668042 -0.1359822 -0.17146637 -0.10793989 0.04621586 0.11918291
-0.447709 0.15430126 -0.07310378 0.06963857 0.105675206 0.1149354 -0.29507676 -0.12817189
0.10489531 -0.035192486 0.053778805 -0.088499874 -0.2414772 -0.06374653 0.1142193 0.08615988
0.098224536 0.0891112 -0.23876506 -0.14789638 -0.03370898 -0.023491478 0.008972527 -0.029074527
0.079074584 0.082519434 -0.12435615 0.20917565 0.08721892 0.21495785 0.0933523 -0.0217126

dense_2/bias:0 f4 [10]
00000000: 0b5f 6aba 5f73 4bbd c85a 6dbc 2873 debd
00000010: caa7 bcbc d568 253c 55b2 093c ca45 cfbc
00000020: 1f22 033e b45a 153d
-0.0008940554 -0.049670573 -0.014486976 -0.10861808 -0.023029227 0.010095795 0.008404334 -0.025301833
0.12805985 0.036463454

dense_1/kernel:0 f4 [224, 256]
00000000: ddeb 3abe 3690 a73a d61f 28bd 96d5 4abd
00000010: 44ac c6bc 9728 263e ea9c d1bd 5573 c7bd
00000020: e72d 0abc 86e8 0f3d 2971 d13d f06d 9e3d
00000030: 396e 2d3d 352b 963d a51d 9fbc e912 62bd
00000040: b02d a83c 4f95 113e 21d4 d63c 0e4b 82bd
00000050: 0381 1a3d f8b1 c83c 4921 8d3d 6784 ccbd
00000060: e805 f73d 2f3d d53d a4f1 d53c 08c5 4f3c
00000070: d46e ff3c a35a d2bd ab54 063e d9ef c9bd
00000080: 8cd7 1a3b 8ed7 3a3e ea4c 3fbd 594e ec3c
00000090: 5331 7f3d 7f8b 85bc be25 003d 2bfc 913d
000000a0: 094e d2bc 7626 d63c dd0f bd3c 55b8 f3bd
000000b0: ba54 d13d a3d8 03bd b5c2 1b3d a0f8 0b3c
000000c0: 4ae5 c43d ea7f 123d 7dce 973d b639 aa3d
000000d0: 0ff9 71bd ca81 20bd 3a5c 053c bd8f d33d
000000e0: a821 7f3d 535c 41be 5274 31bd 5bfc 163e
000000f0: 3457 103e 7175 4bbb 9077 d13d 007b c23d
00000100: 686e 353d e5ff 053e 3f51 96bd 9bbc 2b3e
00000110: 4039 313d b053 23bc 2087 f03d 4edc dabc
00000120: 3253 74bd f222 7cbe a8cc e5bc 80da c23d
00000130: 9593 26bd 6cb0 e63d 7177 613e ac28 0e3b
00000140: b231 2d3d 4c8c c53e 6514 fbbb 4328 f4bd
00000150: d67c be3d 1e51 92bd 0a5c da3d bb63 a93d
00000160: 6716 85bc 1a87 1c3e 453b 403d 7ff1 8abd
00000170: 9846 8abd fcd6 c5bd 2fdf 3a3e 9fa9 c8bb
00000180: eabd 783e 95c0 403b 9b4d 093e 9f9b 9ebd
00000190: 1f8a 2d3e a6ea c8bd 90d8 12be 35b8 b8bc
000001a0: 4fd5 933e 3df5 93bd e488 b03c 5d76 deba
000001b0: 269e 413c c3e4 823d cd6c 90bd 3921 353e
000001c0: 5595 153c 3ea6 f93d fdd2 7cbd 9af0 0ebe
000001d0: 93cd 64ba e770 1abe cbe8 2f3d faae 6a3d
000001e0: 835a bc3d 531a 073e 220b afbd d603 b63c
000001f0: bffa b03d 7196 043d d737 d93d 0493 243d
00000200: b42c 483c 9c36 acbd 67ee 44bd f256 833b
00000210: 6861 cdbd f4b9 19bd a1f5 da3c 8c7a fbbc
00000220: 2c34 b43d 07ec 443d 2446 9abd dc17 953d
00000230: e54a 9bbd 6fb1 f23d 86a9 893d 18bc 1f3e
00000240: 6a3b 4e3d d286 9ebd 1d52 49bd 3f8e a83b
00000250: 8709 f8bd b477 853d 6521 003d 9ba1 ff3d
00000260: 86ae 5d3c 5017 e03a 3f2b 2bbc 46cf aabc
00000270: 6b4e b1bd 9c4b c83d cc63 3d3e 1fc3 87bd
00000280: b633 44bd 83b5 e4bd d70e 43be 3c9a f63d
00000290: bd33 b9bd 3054 ee3b a42d a23d 639b 033e
000002a0: 4caf 193e 11a9 7fbc 0d4d 813c d915 093e
000002b0: 0d10 75bd bc57 d9bc 6392 9c3c 065e a73b
000002c0: e396 e5bd 2b8a 0cbe 1b78 8d3e 479b 8e3d
000002d0: bbd7 c9bd c4e8 6a3d 48c3 18be 5ffe 05bd
000002e0: b6e1 55bd d022 dd3d f429 053e d951 0a3b
000002f0: 1c45 573e a501 6ebd c0c8 cbbd 06b1 1abd
00000300: 5763 42bd 1238 b63d 89a2 19bd 3448 03be
00000310: 2428 0b3c d412 0d3e cea5 7c3c 4f38 193e
00000320: 4add 31bd 4194 3cbd 752c 593e de8a 133e
00000330: dd2c ba3d 33aa 0cbe 2439 abbd 9430 673c
00000340: b571 cb3d a4f5 883c 8e24 6d3d ddbd dc3d
00000350: 8ca5 9b3d 04fc 93bd e55e 5ebc 65a2 3f3e
00000360: 6536 97bd 45aa 7dbd e56d abbd 1ed1 b03c
00000370: 3fc6 dd3d d607 263e e156 24bd 34bc 92bd
00000380: 24d6 5abd 55cc 393e 70ad dfbd 3499 93bd
00000390: 6091 cc3b 19f7 b63d 3b8b 883c 47b2 de3d
000003a0: e1e1 883c 7589 c5bd 1407 323c e435 503d
000003b0: 48f5 f53d c47a ddbd c575 bf3a c70e 143e
000003c0: cfa9 c7bd 5808 ef3d 9645 153e c0c3 f33c
000003d0: eb5d d73d 77b3 af3d f3d4 f23d 5a06 b1bd
000003e0: eec2 0e3d 90b1 bb3d 92cd f6bd a7cf ebbd
000003f0: a85d 8cbd b2f0 073e cba2 183e 6e0a 753d
-0.18254037 0.0012784067 -0.041045986 -0.049520098 -0.024252065 0.16226421 -0.10235007 -0.09738795
-0.0084337955 0.03513386 0.10226662 0.07735813 0.042341445 0.0733246 -0.019423315 -0.055193815
0.020529598 0.14217113 0.026224198 -0.06361972 0.03772069 0.024498925 0.06891114 -0.09986191
0.120616734 0.104120605 0.0261162 0.012681253 0.031180777 -0.10271194 0.13118236 -0.098602004
0.002362701 0.1824629 -0.04670421 0.028845953 0.0623029 -0.016301868 0.031285994 0.07128175
-0.025671976 0.026141386 0.023078853 -0.11900393 0.102212384 -0.032189023 0.038027484 0.008543164
0.09614046 0.03576652 0.074124314 0.08311789 -0.05907541 -0.039186276 0.008139664 0.1033015
0.062287956 -0.18882875 -0.043323822 0.14744703 0.14095765 -0.0031045342 0.10227883 0.09496117
0.044294745 0.13085897 -0.07339715 0.16771166 0.04326749 -0.009968683 0.11744523 -0.026716378
-0.059649654 -0.24622706 -0.02805169 0.09514332 -0.04066809 0.112641186 0.2201822 0.0021691723
0.04228372 0.385836 -0.0076623433 -0.11921742 0.09301154 -0.07144378 0.10662086 0.08270975
-0.016246034 0.15285912 0.046931524 -0.06784343 -0.06751746 -0.09660146 0.182492 -0.006123736
0.24291196 0.0029411663 0.1340851 -0.07744526 0.1694722 -0.09810381 -0.14340425 -0.022548774
0.2887368 -0.0722451 0.02154965 -0.0016972531 0.011817491 0.06391289 -0.07052002 0.17688455
0.009129842 0.12189911 -0.06172465 -0.1395897 -0.0008728143 -0.15082131 0.042946618 0.057295777
0.09196951 0.13193636 -0.08547045 0.022218626 0.08641576 0.032370035 0.10606354 0.040179268
0.012217689 -0.084088534 -0.04807892 0.0040081674 -0.100283444 -0.037530854 0.026728453 -0.030698083
0.087990135 0.048076656 -0.075329095 0.072799414 -0.075826444 0.11850249 0.06721787 0.15599096
0.05034963 -0.07740559 -0.049150575 0.00514391 -0.12111192 0.06516972 0.031281848 0.12481996
0.013530379 0.0017096791 -0.010447322 -0.020850789 -0.08657535 0.09780046 0.184951 -0.06629013
-0.047900878 -0.11167433 -0.1904863 0.120411366 -0.090430714 0.0072732195 0.079188615 0.12852244
0.15008277 -0.015604273 0.015783811 0.1338724 -0.05982976 -0.026531093 0.019112771 0.005107644
-0.1121042 -0.13724582 0.27630696 0.069632106 -0.098556004 0.05735089 -0.14918244 -0.03271329
-0.052217208 0.107976556 0.13004285 0.0021105914 0.21022457 -0.058107037 -0.099503994 -0.03776648
-0.04745802 0.08897413 -0.03750852 -0.12820512 0.008493457 0.13776714 0.01542039 0.14962886
-0.04342393 -0.046039823 0.21208365 0.14408442 0.09090588 -0.13736801 -0.08360508 0.014110703
0.09933797 0.016718693 0.05789619 0.10778401 0.07599935 -0.072258025 -0.013572429 0.18714292
-0.07383422 -0.06192996 -0.0837057 0.02158409 0.10828828 0.16213927 -0.040121917 -0.07164803
-0.053426877 0.18144353 -0.109217525 -0.072069556 0.006242916 0.08933849 0.016667953 0.108738475
0.01670927 -0.096453585 0.010865945 0.050832644 0.12009674 -0.10814431 0.0014607242 0.14458762
-0.09749185 0.11671513 0.14577326 0.029756427 0.1051596 0.08579152 0.11857023 -0.086437896
0.03485387 0.09164727 -0.12050928 -0.11514216 -0.06853801 0.13275412 0.1490585 0.0598244

dense_1/bias:0 f4 [256]
00000000: 3b64 a4bb beaf 64bd 49cc 9dbb 6d30 c03c
00000010: 251f 163d fdbd bd3d 4f91 5d3c c42d 8d3c
00000020: b8ce 7e3d 8f4f eb3d ca2b e13d 82e0 ba3d
00000030: 5be6 1e3c 812e 953d 6240 703d 853b 8cbc
00000040: 69e4 3c3d 0179 463e 49f0 58bd 8148 71bd
00000050: 903e 323c 29b0 f6bd 57d2 32bc f8f7 d43c
00000060: 9841 babc c637 24be 6d55 40bb 326f c03d
00000070: d73f 5dbd 177f bf3d 81d5 b83c bbdb fdbc
00000080: 5650 a1bd dc87 043d 9655 31bd 8b98 1d3d
00000090: e8c1 863d 1ad8 383d a5e4 0c3e 7088 55bc
000000a0: f0f3 f23b 1515 74bd cf1f 4c3c 47c1 f4bd
000000b0: afe8 1a3d 1287 213d df17 bf3d 10f9 063e
000000c0: 19d6 c8bc 7100 223d 85a6 82bc 1f03 bcbb
000000d0: 0585 9fbc ce81 9a3d f438 d43d ac2f d93d
000000e0: 8942 d8bd de84 80bd ca7f 323d b8e6 a8bc
000000f0: b260 9d3d 0e6b 58bb d71e 9c3c d925 5c3d
00000100: 9c01 553c db9f d13c b22b 123c a0cb a4bd
00000110: 8570 f73d 20fd 81bc 4746 84bd 4663 253c
00000120: 0123 8cbc fd90 6cbd c577 07bb 76a7 083d
00000130: 6c2a af3c 1cd8 a33c e5d5 f83d d0af 08bd
00000140: a0ec 4cbc cf11 e93c 08a6 4d3d e0dd 91bc
00000150: e9a9 773d c0b7 4b3d 25ea dc3d ae45 c83d
00000160: 1bc0 df3d fa9d 143d c8d3 1a3c 3a44 6abd
00000170: 2b4f a8bd 8e94 473c 8017 383e 771d 9b3d
00000180: f1b8 583c 52f2 05bd 2e84 8b3d 3275 55bc
00000190: 9714 173d 7e00 81bc f0b4 cdbc d7eb 523d
000001a0: fa67 cf3d aec7 16bd 20fd ba3d 6f3b 7ebd
000001b0: 912f b0bc 1b8a d8bb 7da0 56bc 38e1 b03d
000001c0: b830 87bc daad acbd cbb5 8ebc 8d6b 473d
000001d0: ae24 34bc dd1b a2bd 670e 0a3e 43ab 3f3d
000001e0: 8046 593d e05f ed3d 1515 843d 390d d2bb
000001f0: a10f f13c b879 98bd ce17 633d 1c4c 253d
00000200: dab9 8c3d 8b21 a33c 1624 03bd 1f55 b7bd
00000210: 60b8 253d b762 81bc 1044 b0bc f52e c4bc
00000220: cff2 463d 474a 44bd 69bc 2bbc e528 2ebd
00000230: 984f 853d 8d8a ef3d 0f79 ecbc e941 f73c
00000240: 1860 b6bc bf4b 333b cce5 fd3d bab5 89bd
00000250: c680 243d 6340 29bd c8cf 1e3d be6e 9d3c
00000260: 2a44 cabd 7e1c 46bd a017 793d cdb9 1e3d
00000270: caa9 33bd d096 d93b 3829 613d b26c ef3c
00000280: a1d5 55bd ad8e f8bc 6390 a23d 92a4 2dbd
00000290: e3dc 07bd b057 05bd a901 20bb 20ae d1bb
000002a0: cb31 82bd 546a 76bc 445b f03c 95e7 07be
000002b0: 0862 57bd c41e 0abd 865d 923d f046 803d
000002c0: 203a 2ebd b680 c7bc 3e77 fe3d 9e67 863d
000002d0: f294 5cbd f999 1fbe fdf0 b2bd f644 7b3c
000002e0: d3f7 cf3b ab7f bd3d 1802 333d 34c8 023e
000002f0: 8e65 863d cf94 84bd 02fe 2b3d 3858 e33c
00000300: 9e69 fb3d 29cb 27bd d287 65bd 9eb5 da3d
00000310: 5237 bf3d c47a 9cb9 087e 91bc 8899 c8bc
00000320: 2d47 e3bc ff55 c3bc b741 0c3e 9b99 4dbc
00000330: 3f06 d23d 3c03 7cbc 36b2 b6bd 8cc8 e4bc
00000340: 009a aa3c 8949 ac3d 9ab4 c83d 88d9 dcbc
00000350: d154 113e 7752 b0bc 277b 78bc bc5b cd3d
00000360: bbc1 b13d 4ba7 d43d 6104 81bd e922 843c
00000370: 2ba4 9ebd dcd9 65bd 0e1c c53c 9963 78bc
00000380: ca85 f73c be61 4fbd 968c c2bb 59d6 25bd
00000390: 4546 1abc 5460 0c3e cdd7 4dbd afd7 953d
000003a0: 16e6 cc3b b5c2 a03d 376f 473d 36ce 6d3d
000003b0: 1871 0f3e 38a9 b5bc 9546 053d ab8f 1abc
000003c0: f9ef 3bbd 7bbe 9c3d 2fed ea3b 817f e43a
000003d0: 0023 dcbd 46fc b5bc 6b7c 2c3d 5ce0 d9bc
000003e0: d5b1 b83d ed16 e1bb 655f b2bd 3589 0b3b
000003f0: c124 3ebc ee32 a93d e561 c03b 99c7 a43c
-0.005016831 -0.055831663 -0.0048156125 0.023460591 0.036650795 0.09264753 0.013523414 0.017233737
0.06220886 0.11489784 0.1099468 0.09124853 0.009698476 0.072842605 0.05865515 -0.017118225
0.046116266 0.19382097 -0.05296353 -0.058907036 0.010879174 -0.12045319 -0.010914407 0.025997147
-0.022736356 -0.16036901 -0.0029347793 0.09396209 -0.05401596 0.09350412 0.022562744 -0.030988565
-0.07876651 0.032356128 -0.04329451 0.038475554 0.065799534 0.045127966 0.13759096 -0.0130330175
0.0074143335 -0.059590418 0.012458756 -0.11950927 0.03781956 0.039435454 0.09330725 0.13180947
-0.024516152 0.039551202 -0.015948543 -0.0057376768 -0.019472608 0.075442895 0.103624254 0.10604796
-0.105595656 -0.062753424 0.0435789 -0.020617828 0.07684459 -0.0033022794 0.019057674 0.05374703
0.013000872 0.02558892 0.008921551 -0.08046651 0.12082008 -0.01586777 -0.06458717 0.010094469
-0.017106535 -0.05775546 -0.0020670753 0.03336283 0.021382533 0.02000051 0.12150172 -0.033370793
-0.012507588 0.028450875 0.050207168 -0.017805994 0.060464773 0.049735785 0.10786847 0.09778915
0.10925313 0.03628347 0.009449907 -0.057193972 -0.08218225 0.012181414 0.17977715 0.07573979
0.013227687 -0.032701798 0.06812321 -0.01302843 0.03688487 -0.015747305 -0.025110692 0.051494446
0.10127254 -0.036811523 0.09130311 -0.0620684 -0.021507056 -0.0066082603 -0.013099787 0.08636707
-0.016502723 -0.08431597 -0.01742067 0.048686553 -0.010995073 -0.07915471 0.13482057 0.046794187
0.05304575 0.11590552 0.064493336 -0.0064102677 0.029426398 -0.07445091 0.055442624 0.040355787
0.06871386 0.019913455 -0.032016836 -0.089517824 0.040459037 -0.015794141 -0.02151683 -0.023948172
0.048571404 -0.0479224 -0.010481932 -0.04251947 0.06509322 0.11696348 -0.028866319 0.030182796
-0.022262618 0.002735838 0.12397346 -0.06724115 0.04016187 -0.04132117 0.038772374 0.019217845
-0.098762825 -0.048367016 0.060813546 0.038751412 -0.043863095 0.0066402927 0.05497095 0.029226635
-0.052205686 -0.03034147 0.07937696 -0.042393275 -0.03316964 -0.03255433 -0.0024415052 -0.006398931
-0.063571535 -0.015039999 0.029340394 -0.13271935 -0.052583724 -0.033720747 0.071467444 0.0626353
-0.0425359 -0.024353366 0.124250874 0.06562732 -0.053852983 -0.1558608 -0.08737371 0.015336266
0.0063466816 0.09252866 0.04370317 0.12771684 0.06562339 -0.064736955 0.041990288 0.027752027
0.12276004 -0.040965233 -0.05603773 0.10679172 0.093367234 -0.00029846106 -0.017760292 -0.024487272
-0.0277439 -0.023844717 0.13696943 -0.012548829 0.102550976 -0.0153816305 -0.0892071 -0.02792766
0.020825386 0.08412463 0.09800072 -0.026959196 0.14192511 -0.021523697 -0.015166081 0.100272626
0.08679529 0.10383471 -0.06299663 0.016129928 -0.07746156 -0.05611597 0.02406123 -0.015160465
0.030215163 -0.050630324 -0.0059371693 -0.04048762 -0.009416168 0.13708621 -0.05025463 0.07316529
0.0062530143 0.078496374 0.048690047 0.058057986 0.14007986 -0.022175416 0.032538015 -0.009433667
-0.045883153 0.07653519 0.007169388 0.0017433019 -0.10748863 -0.02221502 0.04211084 -0.02659624
0.09018294 -0.006869188 -0.08709601 0.0021291499 -0.0116054425 0.08261667 0.005871045 0.020114707

conv2d_1/kernel:0 f4 [32, 28, 3, 3]
00000000: 71b5 64bd 1322 af3d d704 c4bd 3cab 9dbd
00000010: b20d 7f3c 2889 5e3c 7933 9e3d b314 b4bd
00000020: 3c57 c13c 282a f4bc 4292 203d 9e26 2fbd
00000030: 2259 6a3d e5a3 20bd 220e 8c3b f102 c6bd
00000040: b0b0 1dbc 9b50 843d 72e9 29bd a0e9 38bc
00000050: b8b0 ddbc 73c5 b6bc ac37 043e 5818 103e
00000060: a918 a4bd e7b6 873d 710a a13d 1db2 9a3d
00000070: 80c4 16ba b9dd a33d 556b dfbe e0fa a6bd
00000080: 0f80 aebc f9ab b03d f3d2 96bd 914c 9d3d
00000090: a0e4 043c dfd2 b4bd 3c1f 7bbd dda5 4dbd
000000a0: 346f db3d 6684 533d 30c1 a4bc 4002 9bbd
000000b0: 582a 34bc 12ed c5bd 1052 c43b d085 08bc
000000c0: c55f 1b3d d8a9 d1ba 0890 90bd 1898 52bc
000000d0: 133c abbd 78da 26bd e7d0 853d 60ad 45bd
000000e0: 4ecc 86bd 2877 b1ba 264d a4bd 946d d2bd
000000f0: 4633 533d a3c0 ac3d 0ef8 7a3d 4157 8e3d
00000100: 3f87 ba3d e904 5cbd afac e03b f916 0a3d
00000110: b00c 163e 2cbf fbbc a8f1 a8bd 5ab4 1dbd
00000120: 71af 9a3d f952 cbbd 22bb 3b3d 1084 c5bd
00000130: c35f eabd 2aef 083d c4f8 d03c dc07 c6bd
00000140: 00e0 563b 437d 58bd 77c4 41bd e2ec 19bd
00000150: 4a71 e8bc 8643 163d b278 783c b77f d1bd
00000160: 8f24 be3d f773 6dbd cc01 d43c 1424 82bc
00000170: 429a 163d 28ee 063e 0877 72bd 5c00 91bb
00000180: 8998 b73d b43c 8dbd e056 0ebd 1c10 bfbc
00000190: d830 c6bc 46d4 01bd 97d4 623b 97f4 ddbd
000001a0: 0d69 9bbd ccd0 0bbd 3a9a d4bd dcb8 dfbc
000001b0: e5a0 933d c0c2 5f3c 8aa0 68bd f0bc 8ebd
000001c0: c879 0cbe 3b8f 24be 00c9 a73b cca6 1abd
000001d0: e49e e63c ae77 1cbd 1973 cb3d 263b 123d
000001e0: 01dd 17be 5d37 9bbe 7ce3 d3bc 05ca d13d
000001f0: 5177 a43d 6c71 cabd 1a5f 4d3d 8dc7 ce3d
00000200: 80c6 8f3a 2596 08be 6ec3 0f3d 009c 2e3d
00000210: 863c 363d f6df 333d ef29 a23d ac55 853c
00000220: 8744 71bd 12bb a1bd 5b85 543e d7ec 293d
00000230: 05c6 bf3d f0a9 8e3c 5b3a 923d a43e b0bc
00000240: 9c0c e73c 03db 983d c510 803d 7fd2 3b3e
00000250: f2a2 f33d 15ae 6b3e 7858 433c b9b7 803d
00000260: 5a0e 743d baaa 4c3d aae2 3d3d c43e 27bd
00000270: a763 5d3e dc0a 853e 1977 2f3e 72be bdbd
00000280: 3a75 01bd e9f5 8dbd eeb8 4cbd e809 423c
00000290: 5ab3 483d 8372 153e 3715 0d3e 899f 96be
000002a0: 60be 03bb ee77 7c3d 4c34 8e3c 6069 6abc
000002b0: 7886 4f3c 0234 6f3d 5cd5 7dbe f3f6 06bd
000002c0: d095 16bf 6fd8 ae3d 9ac8 5cbd 6fd1 b9bd
000002d0: 5094 58bc 5c89 d93c 45ca 8b3d 31de c7be
000002e0: 92a1 a4bd 2345 afbe 2419 b2bc 10e8 1e3c
000002f0: 198d 833d a6d6 503d c884 4f3c d1e1 953d
00000300: 9403 8ebe 4e6e 38bd 6ca9 66bd 5012 343c
00000310: a796 b83d b5d3 c7bd 60d1 c7bc 0e54 3b3d
00000320: f45f 0dbd 2766 92be 10cb 77be c5da 6dbe
00000330: 8dc8 823d a84b 313c 64ef c53c d165 acbd
00000340: c417 06bd d564 b93d 3f96 c0be b429 10be
00000350: 1e21 e63c da67 2b3d 7044 c9bb dc27 c0bc
00000360: 8e48 543d df7b ae3d 26d5 22bd 36d7 ccbe
00000370: ecee 94bd aed0 143e 3c07 c53c 0079 973a
00000380: d815 9fbd 6e2f 293d 88ac 81bc 4577 b2bd
00000390: 12f3 ecbd 0140 53be 56bc ebbb df8b c53d
000003a0: 99c9 8e3d 6d80 833d 2c90 81bd 5813 2abd
000003b0: 00a9 3f3b 3db9 ecbd b1d5 0ebe 6f8b e73d
000003c0: 9927 963d 3123 9cbd d410 f23c a2ad bdbd
000003d0: e765 98bd b415 a83c 1735 bdbd 170a 0d3d
000003e0: 057e 0fbd 8b02 c83d 6030 c2bd 9344 41bd
000003f0: 3e01 a5bd 8054 673c a2da 483d b4b3 15be
-0.0558371 0.08551421 -0.095712356 -0.07698676 0.01556723 0.013582505 0.077246614 -0.087930106
0.023601167 -0.029805258 0.039201982 -0.042761438 0.05721391 -0.039218802 0.0042741457 -0.0966853
-0.009624645 0.06460687 -0.041482396 -0.011286169 -0.027061805 -0.022310948 0.12911862 0.14071786
-0.08012516 0.06626683 0.0786332 0.07553504 -0.00057513267 0.080012746 -0.43636575 -0.08153319
-0.021301297 0.08626551 -0.07364454 0.076806195 0.008111149 -0.08829283 -0.061309084 -0.050207008
0.1071457 0.051639937 -0.02011165 -0.075687885 -0.010996424 -0.09664358 0.005991228 -0.008332685
0.03793313 -0.0015996052 -0.07058722 -0.012853645 -0.083610676 -0.04073569 0.065339856 -0.048261046
-0.06581937 -0.001353954 -0.080225274 -0.102748066 0.05156257 0.0843518 0.06127172 0.06950236
0.091078274 -0.05371562 0.006856523 0.033713315 0.14653277 -0.030730806 -0.08249217 -0.038502075
0.07552994 -0.09927935 0.04583276 -0.096443295 -0.11444046 0.03343121 0.025509246 -0.09669468
0.0032787323 -0.052853834 -0.047306504 -0.037579425 -0.028374333 0.03668549 0.015165495 -0.10229438
0.09284317 -0.05797192 0.025879763 -0.015886344 0.036768205 0.13176787 -0.05919555 -0.0044250917
0.08964641 -0.06896344 -0.03475082 -0.023323111 -0.024193212 -0.03169658 0.0034611577 -0.108376674
-0.07588396 -0.03413467 -0.10380979 -0.027309828 0.072084226 0.013657272 -0.056793727 -0.06969631
-0.13718331 -0.16070263 0.0051203966 -0.037756726 0.028151937 -0.038200073 0.099340625 0.03570094
-0.148304 -0.30315676 -0.025865309 0.1024361 0.0803057 -0.09884915 0.050139524 0.10096655
0.0010969192 -0.13338526 0.035098486 0.042629242 0.044491313 0.043914758 0.079181544 0.016276203
-0.058903243 -0.07897009 0.20753996 0.041485634 0.09363941 0.017415017 0.07140037 -0.021514244
0.028204255 0.07463648 0.062531985 0.18342017 0.11896314 0.23015626 0.011922948 0.06285042
0.059584 0.049967505 0.04635874 -0.040831342 0.21620046 0.25984848 0.17135276 -0.0926484
-0.031605937 -0.06931669 -0.04998105 0.011843182 0.048999168 0.14594464 0.13777624 -0.2941859
-0.0020102486 0.06163781 0.017358921 -0.01430735 0.012666337 0.058399208 -0.24788421 -0.032950353
-0.58822346 0.08537375 -0.053902246 -0.090731494 -0.013218954 0.026554756 0.06825689 -0.39036706
-0.080386296 -0.34232435 -0.021740504 0.009698883 0.064233966 0.050985955 0.012665935 0.07318462
-0.27737105 -0.04502707 -0.056313917 0.010990694 0.0901311 -0.09757177 -0.02439183 0.045734458
-0.034515336 -0.2859356 -0.24198556 -0.23227985 0.06385908 0.0108212605 0.024162002 -0.084178574
-0.03273751 0.09052435 -0.3761463 -0.14078408 0.028091963 0.041847087 -0.0061421916 -0.023456506
0.051827006 0.0851972 -0.039754055 -0.40007943 -0.07272133 0.1453273 0.024051301 0.0011556447
-0.07767838 0.041304998 -0.01582934 -0.08714155 -0.115697995 -0.20629884 -0.0071940823 0.09645819
0.069720455 0.0642098 -0.06326327 -0.041522354 0.002924502 -0.11558769 -0.13948704 0.11305892
0.073317714 -0.076239 0.02954904 -0.092616335 -0.07441311 0.020518161 -0.09238642 0.03443345
-0.03503229 0.0976611 -0.09481883 -0.047184538 -0.080568776 0.014119267 0.04903663 -0.14619333

conv2d_1/bias:0 f4 [32]
00000000: 9f7e edbc 5aaf 08bc ec85 46bc 365d 2ebe
00000010: c6ec 5bbd d39a b7bc ad5e 86be e33d febd
00000020: a763 a53d 30e7 a53d 2615 f3bd 077f 22be
00000030: 6835 54bb 81c1 01b9 e91d e2bd 2593 c2bc
00000040: e7c7 f9bc cc3c 30bb 10e6 c8bb 5cf2 5cbd
00000050: b356 61bd 37c9 6e3a e38b 953c 00bc 0a3d
00000060: 8b11 80bb c1ef eebb 1cb9 c3be cc56 afbd
00000070: 8ab8 6dbe 98dd 4abd 6df9 9bbc a978 34be
-0.028991042 -0.008342588 -0.01211689 -0.17027745 -0.0536926 -0.022412693 -0.26244107 -0.12414148
0.08075648 0.08100736 -0.11869268 -0.1586877 -0.0032380465 -0.00012374485 -0.11040861 -0.023751805
-0.030490829 -0.0026891707 -0.006130941 -0.05394207 -0.055014323 0.0009108963 0.01825518 0.033870697
-0.0039083413 -0.0072917645 -0.38227165 -0.08561477 -0.23214927 -0.049527735 -0.019039834 -0.17624153
