mnist_pytorch_model.pth (torch, 440599 bytes, 6 tensors)

weight f4 [128, 784]
0	0x3cc574fe	0.024103638
1	0x3b6490d0	0.0034876354
2	0xbc3456a6	-0.011006987
3	0x3bcda800	0.0062761307
4	0x3cb5108a	0.022102613
5	0xbc8687f3	-0.016422248
6	0xbcee094c	-0.029057167
7	0xbcad1e9a	-0.021132756
8	0x3c1ca050	0.009559706
9	0x3cb0cb38	0.021581277
10	0xbcbbf100	-0.022942066
11	0x3cc70b96	0.024297517
12	0xbc82f4c7	-0.01598586
13	0x3cbfc77a	0.023410548
14	0xbccb7d6e	-0.024840083
15	0x3b17b220	0.0023146942
16	0xb90e2e00	-0.00013559312
17	0x3d0ff171	0.035142366
18	0xbc9c30aa	-0.019066174
19	0x3d0079f7	0.031366315
20	0xbcf56055	-0.029953161
21	0x3b74b420	0.0037338808
22	0xbcd7ee93	-0.026358878
23	0xbc392dae	-0.011302395
24	0x3c595748	0.013265438
25	0x3c283fa8	0.010269083
26	0x3c3fbcb0	0.011702701
27	0x3c597238	0.013271861
28	0x3ca42a16	0.0200396
29	0x3d000f69	0.031264696
30	0x3cc0686c	0.023487292
31	0x3d0a5c33	0.033779334
32	0xbca203aa	-0.019777138
33	0xbc7bdca0	-0.015372425
34	0xbcfa8033	-0.030578708
35	0xbceb45da	-0.028719831
36	0x3d007129	0.031357918
37	0xbca55dd5	-0.020186344
38	0x3cea899a	0.028630067
39	0x3c424bc8	0.011858888
40	0x3c68e394	0.014214415
41	0xbc1c058e	-0.009522809
42	0x3b2d1ea0	0.002641596
43	0x3cc68bae	0.024236526
44	0x3b8a0e40	0.0042131245
45	0x3cd3eb46	0.025869023
46	0xbccbacae	-0.024862614
47	0xbd1115ee	-0.035421304
48	0xbd06562c	-0.032797024
49	0xbc98c42e	-0.018648233
50	0x3ca4241e	0.020036753
51	0x3cff88a2	0.031193081
52	0xbbea14a4	-0.007143574
53	0x3c473130	0.012157723
54	0xbc838f8c	-0.01605966
55	0xbd10896c	-0.035287306
56	0x3c73d41c	0.014882114
57	0xbc7aea54	-0.015314657
58	0x3b8ac500	0.00423491
59	0x3cde9cb6	0.027174335
60	0x3d08df51	0.033416096
61	0xbbbbe054	-0.005733529
62	0x3be79060	0.0070667714
63	0xbca1389e	-0.019680317
64	0xbd03f960	-0.032220244
65	0xbc0b2480	-0.008492589
66	0x3c4f58fc	0.012655493
67	0x3b16bbb0	0.0023000054
68	0x3ac5b4a0	0.0015083738
69	0x3d0388d7	0.032112923
70	0xbd0da39c	-0.03457986
71	0xbb9a7f54	-0.0047148857
72	0xbd084590	-0.033269465
73	0xbc2c6eae	-0.010524435
74	0xbca9518e	-0.020668771
75	0xbb2cfe20	-0.0026396587
76	0xbcfb6738	-0.030688867
77	0x3ce85e46	0.028365266
78	0xbc6b4cd2	-0.014361577
79	0x3c711478	0.014714353
80	0xbc358c38	-0.011080794
81	0x3c373e84	0.0111843385
82	0x3ced5e32	0.02897558
83	0x3c5e47b0	0.013566896
84	0x38378000	4.374981e-05
85	0x3bb59408	0.0055413283
86	0x3c7f3b30	0.015578076
87	0x3d096819	0.03354654
88	0xbce6a501	-0.028154852
89	0x3c4e1180	0.0125774145
90	0xbcb7e16c	-0.022446357
91	0xbd09a6b4	-0.033606246
92	0xbceaf1b1	-0.0286797
93	0x3ceb0662	0.028689567
94	0xbcecf2a8	-0.028924301
95	0x3cd2217a	0.025650728
96	0xbc6aaf3c	-0.014324006
97	0xbca97003	-0.020683294
98	0xbd00614f	-0.0313428
99	0xb8bdf600	-9.058043e-05
100	0x3cf1cbee	0.029516187
101	0x3cae9a0c	0.02131369
102	0xba0e2c80	-0.0005423501
103	0x3b9fa9f0	0.004872553
104	0xbb84ac78	-0.00404888
105	0xbb5ce590	-0.0033706166
106	0x3ccdb9c6	0.025112998
107	0xbce14a25	-0.027501175
108	0xbcf94093	-0.0304263
109	0xbc0675e0	-0.0082068145
110	0xb8b25200	-8.502975e-05
111	0x3cb37632	0.021906946
112	0x3c553564	0.013013218
113	0x3d05e4b9	0.03268883
114	0x3cdd9ef6	0.027053338
115	0x3c844f9c	0.016151242
116	0xba0ccbc0	-0.0005370937
117	0x3c30c1e4	0.010788415
118	0xbbb49a08	-0.005511526
119	0x3c67bb1c	0.014143731
120	0x3c6f4084	0.014602784
121	0x3d096527	0.033543732
122	0xbd05c514	-0.03265865
123	0x3b126310	0.0022336878
124	0x3c45dc60	0.012076467
125	0x3b85ad28	0.0040794797
126	0xbc4b9786	-0.012426263
127	0x3cf98d66	0.030462932
128	0xbcfd17a8	-0.03089507
129	0x3b3cf470	0.002883222
130	0x3c90275a	0.01759689
131	0xb5ab0000	-1.2740493e-06
132	0xbca531da	-0.020165373
133	0xbd09bd68	-0.033627898
134	0x3b9fd990	0.0048782304
135	0x3cfc9ee6	0.030837487
136	0xbcfc650a	-0.030809898
137	0xbc9eeee5	-0.019401023
138	0xbbc9ef14	-0.0061625335
139	0xbd1063e2	-0.035251506
140	0x3c7afae8	0.01531861
141	0xbcf7e27e	-0.030259367
142	0xbcf2d9fe	-0.029644962
143	0xbd038b0e	-0.032115035
144	0x3b91f078	0.004453715
145	0xbca89680	-0.020579576
146	0xbceb29c1	-0.028706433
147	0xbd09da4f	-0.03365546
148	0xbc87a3b0	-0.016557544
149	0x3d0897c9	0.03334788
150	0x3bbd82d8	0.00578342
151	0xbcd8e453	-0.026476061
152	0x3c0c9f58	0.008582912
153	0xbc22e48e	-0.009942187
154	0xbd118a7b	-0.035532456
155	0x3cd5cc1c	0.026098303
156	0x3ce5103e	0.027961846
157	0x3c90e99c	0.017689519
158	0xbcc751aa	-0.024330933
159	0x3c1be5fc	0.009515282
160	0xbc29edc6	-0.010371631
161	0x3cb7f886	0.022457372
162	0xbc142966	-0.009043073
163	0xbd015792	-0.031577654
164	0x3c8bef02	0.017081741
165	0xbcfe25d8	-0.031023905
166	0xbcf86fb3	-0.0303267
167	0xbcf15c0a	-0.029462833
168	0xbd0d59e4	-0.034509555
169	0xbcc03efe	-0.023467537
170	0xbc23477c	-0.009965774
171	0x3b634f10	0.0034684576
172	0xbce2d988	-0.027691618
173	0xbcb3e3b0	-0.021959156
174	0xbcdda23e	-0.027054902
175	0x3d11ec11	0.03562552
176	0xbb10e480	-0.0022108853
177	0x3befab30	0.0073141083
178	0x3c1949f8	0.009356014
179	0x3cd1d18a	0.025612611
180	0x3d041bdd	0.032253135
181	0x3cb8c716	0.02255587
182	0xbc80ffa7	-0.015746905
183	0xbc08ae3c	-0.008342322
184	0x3bb14b98	0.005410623
185	0x3b0db420	0.0021622255
186	0x3d01243f	0.031528708
187	0xbc37fed2	-0.0112301875
188	0x3ca20e40	0.019782186
189	0xbd00ac5a	-0.031414367
190	0x3c006bc8	0.007838197
191	0x3c167358	0.0091827735
192	0x3cf80766	0.030276965
193	0xbbce6000	-0.006298065
194	0x3ca86250	0.020554692
195	0x3ce7bb0a	0.02828743
196	0xbc6ff95c	-0.014646854
197	0x3bf68c68	0.007524062
198	0x3c5e7634	0.0135779865
199	0xbc95a497	-0.01826696
200	0xbc320166	-0.010864591
201	0x3cf87a0e	0.030331638
202	0xbb61f810	-0.0034480132
203	0xbcd0717a	-0.025444735
204	0xbc3e0be6	-0.0115995165
205	0x3d11b32d	0.035571266
206	0x3ad927e0	0.001656767
207	0xbd114cbd	-0.035473574
208	0xbcbeca53	-0.023289835
209	0x3bee2928	0.00726809
210	0xbd085de3	-0.033292662
211	0xbcefe168	-0.029282287
212	0xbc875b77	-0.016523106
213	0xbc2053f8	-0.009785645
214	0xbcd8ec45	-0.02647985
215	0x3b6e52a0	0.0036365166
216	0x3c9799ac	0.018505894
217	0x3b529fb0	0.0032138638
218	0x3bec2c80	0.0072074533
219	0x3ced04c6	0.02893294
220	0xbcd21580	-0.025645018
221	0x3af83bc0	0.0018938705
222	0xbcb48cc8	-0.022039786
223	0x3c045588	0.008077033
224	0xbc3ebd2e	-0.011641784
225	0xbd08f158	-0.03343329
226	0xbc3cfaae	-0.011534376
227	0x3cc23336	0.02370606
228	0xbcf186e8	-0.029483274
229	0xbc26774e	-0.01016028
230	0x3d09d467	0.03364983
231	0x3ce6ad96	0.028158944
232	0xbbc01ba4	-0.00586267
233	0xbadfe0e0	-0.0017080568
234	0x3b6a7b10	0.0035778917
235	0xbce24c03	-0.027624136
236	0x3bbc2e88	0.0057428516
237	0x3c95673e	0.018237706
238	0x3c91851a	0.017763663
239	0xbcd00cd5	-0.025396744
240	0xbbc7bbd4	-0.006095389
241	0x3cac77fc	0.021053307
242	0xbc8e388c	-0.017360948
243	0x3cb1c566	0.021700572
244	0x3cf6b7c6	0.030116927
245	0xbc78abd8	-0.0151776895
246	0xbd074dc3	-0.033033144
247	0xbc94a58e	-0.018145349
248	0xbd018c74	-0.031628087
249	0x3cd7640a	0.02629282
250	0x3c04fd9c	0.008117106
251	0x3c8261b0	0.015915722
252	0xbcfb9e5e	-0.030715164
253	0x3b92e370	0.004482679
254	0x3cf052c6	0.029336344
255	0xbcaee358	-0.02134864

bias f4 [128]
0	0x3c8d79ee	0.017270055
1	0x3c73c130	0.014877602
2	0xbbfda908	-0.0077410974
3	0xbd066300	-0.032809258
4	0x3b44c100	0.0030022264
5	0x3b2cdf90	0.002637837
6	0xbd0a1f94	-0.03372152
7	0x3ce14cd6	0.027502459
8	0xbc38e338	-0.011284642
9	0x3cdce9fa	0.026967037
10	0xbc84c785	-0.01620842
11	0x3cec445e	0.028841194
12	0xbcc4f9c3	-0.024044877
13	0x3b9e4140	0.0048295557
14	0x3cb6a5cc	0.022295855
15	0x3cd6009e	0.026123341
16	0xbc9fb265	-0.019494245
17	0x3c874afc	0.016515248
18	0x3b03b910	0.002009932
19	0x3c26f7c0	0.010190904
20	0x3ca10b96	0.019658845
21	0x3d0f28bd	0.03495096
22	0x3b75ddf0	0.0037516318
23	0x3ca58d28	0.02020891
24	0x3c259080	0.010105252
25	0x3c766b54	0.015040237
26	0xbc9e6bca	-0.019338507
27	0x3c9ce170	0.019150466
28	0x3cd7f5ac	0.026362263
29	0x3ca7ba32	0.020474527
30	0x3cd6dfdc	0.026229791
31	0x3cb5028a	0.022095937
32	0xbd0aa38e	-0.033847384
33	0x3cda8370	0.026674002
34	0xbd076e3f	-0.033064123
35	0x3bf8b110	0.007589467
36	0x385dc400	5.2873045e-05
37	0x3bde0290	0.006775208
38	0xbbb2449c	-0.005440308
39	0xbcbb0255	-0.02282826
40	0x3c9c46cc	0.019076727
41	0xbcccdd6a	-0.025007922
42	0xbc8f3fcc	-0.017486475
43	0x3cc6859c	0.024233632
44	0xbcc0775a	-0.023494411
45	0x3c5bd4d4	0.013417441
46	0x3d0a6f89	0.033797774
47	0xbc8f4880	-0.017490625
48	0x3c3b6418	0.011437438
49	0x3c7d6124	0.015465055
50	0x3be54e68	0.006997872
51	0xbc8c0bda	-0.017095495
52	0xbcbbc505	-0.022921095
53	0xbb815f80	-0.003948152
54	0xbc2b87ce	-0.01046939
55	0xbd0e0245	-0.034670133
56	0xbc9cf3f0	-0.019159287
57	0x3ac34200	0.0014896989
58	0xbbd687d4	-0.0065469537
59	0x3c8b3530	0.016993135
60	0xbd10fc58	-0.035396904
61	0x3bb6c058	0.0055771284
62	0x3ca654b8	0.020304069
63	0xbca89e43	-0.020583278
64	0x3cabec90	0.020986825
65	0xbd0d9b0a	-0.034571685
66	0x3c9bb320	0.019006312
67	0xbc9bea30	-0.019032568
68	0x3be15990	0.0068771318
69	0xbcb003a0	-0.021486104
70	0xbce7cfb8	-0.02829729
71	0x3bbcc7e8	0.0057611354
72	0x3c0c9774	0.008581031
73	0xba11d2c0	-0.0005562715
74	0xbc797500	-0.015225649
75	0x3cac4a28	0.021031454
76	0xbc3d914a	-0.011570284
77	0xbc1326aa	-0.008981386
78	0xbc971b6a	-0.01844569
79	0xbcf3c668	-0.029757693
80	0x3d07780d	0.033073474
81	0x3b333d90	0.0027349927
82	0x3b2ab360	0.0026046857
83	0xbabc96a0	-0.0014388151
84	0xbccdab3a	-0.025106061
85	0xbcf907f5	-0.030399302
86	0x3c8c6e00	0.017142296
87	0x3c469250	0.012119845
88	0xbcccbece	-0.024993327
89	0x3d052aaf	0.03251141
90	0x3ccf9cbc	0.025343291
91	0x3d0b3b6d	0.03399222
92	0xbbacc4d4	-0.005272487
93	0xbced1953	-0.02894274
94	0x3c303f88	0.0107573345
95	0x3cfb775e	0.030696567
96	0x3c4a3498	0.012341641
97	0x3bc730a8	0.0060787983
98	0x3c2e75f8	0.010648243
99	0xbcd2735c	-0.025689773
100	0x3d1053f3	0.03523631
101	0x3c48b6b0	0.012250587
102	0xbabd9aa0	-0.0014465638
103	0xbc8e0a15	-0.017338792
104	0x3cc1996c	0.023632728
105	0x3ca04a98	0.01956682
106	0xbc896a2c	-0.01677426
107	0xbc609de0	-0.013709515
108	0x3cf8bd66	0.03036375
109	0xbcf0df73	-0.029403424
110	0xbcffe7c1	-0.031238439
111	0xbc4a7986	-0.012358075
112	0xb9d08f00	-0.00039779395
113	0x3c0b323c	0.0084958635
114	0x3c51787c	0.012785073
115	0xbd0dcc87	-0.03461888
116	0xbccbf935	-0.024899105
117	0xbd02917f	-0.031877037
118	0x3ced1e76	0.028945189
119	0x3c171c60	0.009223074
120	0x3c872f6a	0.016502101
121	0xbd046478	-0.032322377
122	0xb9ceab80	-0.0003941916
123	0xbc442786	-0.011972314
124	0xbcf6df61	-0.030135812
125	0xbc508b38	-0.012728505
126	0x3c49eddc	0.0123247765
127	0xbc2c7498	-0.010525845

weight f4 [64, 128]
0	0x3ce90090	0.028442651
1	0xbc9af400	-0.018915176
2	0xbd7a53d4	-0.0611151
3	0xbd07785c	-0.033073768
4	0x3c8d94f8	0.017282948
5	0x3d2caec2	0.04215885
6	0xbb9abec0	-0.004722446
7	0xbc4c4a48	-0.012468882
8	0xbca0c620	-0.019625723
9	0x3db190f5	0.086702265
10	0x3d5eb846	0.054374956
11	0x3b559940	0.0032592565
12	0xba7dd500	-0.00096829236
13	0xbc97fe50	-0.018553883
14	0xbd9bf511	-0.07615102
15	0x3ccc1be0	0.024915636
16	0xbd909f1f	-0.070616
17	0xbcc1ae54	-0.023642696
18	0xbd79be46	-0.060972475
19	0x3c0dae08	0.008647449
20	0xbd05039f	-0.032474156
21	0xbd4f72f5	-0.05064674
22	0x3d017adc	0.03161131
23	0x3aae5440	0.0013300255
24	0x3d4dd012	0.05024726
25	0xbb45e180	-0.0030194223
26	0x3c8d4e70	0.017249316
27	0x3bb78b80	0.0056013465
28	0xbcff6022	-0.03117377
29	0x3ba07170	0.0048963353
30	0x3d86dcb7	0.06585067
31	0x3d02fe54	0.031980827
32	0xbc8a750c	-0.016901515
33	0xbd1d92a4	-0.038469926
34	0xbcfccc50	-0.030859143
35	0x3ad14d40	0.0015968457
36	0x3ca3fa74	0.020016886
37	0x3ca5c718	0.020236537
38	0xbc5797c0	-0.013158739
39	0xbd51e2c2	-0.051241644
40	0xbd66d7f1	-0.05635828
41	0xbd7b7b38	-0.061396807
42	0xbcf26c4a	-0.029592652
43	0xbd7d6a0a	-0.061868705
44	0xbc89e3e0	-0.016832292
45	0x3d01700a	0.03160099
46	0xbd27be46	-0.040952943
47	0x3d5229b2	0.051309295
48	0x3d9e8af7	0.07741349
49	0x3d8a87d5	0.06764189
50	0xbd00300d	-0.031295825
51	0x3d461be6	0.04836645
52	0xbda991df	-0.08279776
53	0x3c9157f0	0.017742127
54	0xbcd25720	-0.02567631
55	0xbd143c85	-0.03619053
56	0x3d36909a	0.044571497
57	0xbda3c900	-0.07997322
58	0x3d8d62bd	0.069035985
59	0x3d98f135	0.074678816
60	0x3d514dfa	0.051099755
61	0x3c131e00	0.0089793205
62	0xbd0876d2	-0.03331644
63	0x3d404b22	0.046946652
64	0xbd89b4f5	-0.06723968
65	0x3d545a86	0.051844142
66	0x3c01d9c0	0.007925451
67	0x3d36f4c2	0.044667013
68	0x3c837148	0.016045228
69	0x3d723442	0.05913187
70	0x3d5b43da	0.053531505
71	0xbd24ae2b	-0.040205162
72	0xbcecf28a	-0.028924245
73	0x3c198688	0.009370454
74	0xbc5e31c0	-0.013561666
75	0xbc2a8238	-0.010407023
76	0xbd69864f	-0.057012852
77	0x3da0641d	0.07831595
78	0x3d784902	0.0606165
79	0xbaad6440	-0.0013228729
80	0x3d8a3e99	0.06750221
81	0x3c893c40	0.016752362
82	0x3d746a4e	0.059671693
83	0xbd11acc4	-0.035565153
84	0xbd1adcf5	-0.037808377
85	0x3db4a987	0.08821397
86	0x3d35c056	0.04437288
87	0xbd7803e4	-0.060550585
88	0xbc122cc0	-0.008921802
89	0x3cd68ea8	0.02619107
90	0x3d841b87	0.06450563
91	0xbd918bd8	-0.07106751
92	0xbd980521	-0.07422853
93	0xbd7ac9f5	-0.061227757
94	0x3d691d76	0.05691286
95	0x3daf996d	0.085741855
96	0x3d48a3ce	0.04898434
97	0x3d415c7e	0.047207348
98	0xbd693ec2	-0.056944616
99	0x3c33bc48	0.010970183
100	0xbd54e9fa	-0.05198095
101	0xbda6424f	-0.08118116
102	0x3a6d8c80	0.00090617687
103	0x3d8b9521	0.068155535
104	0xbd66014d	-0.056153584
105	0xbcbf20d0	-0.023331076
106	0x3bef8cb0	0.0073104724
107	0xbcea9eb6	-0.028640132
108	0x3d84f245	0.06491522
109	0xbd180f74	-0.037124112
110	0x3d7d15a6	0.061788224
111	0xbd4ae991	-0.049539153
112	0xbc824388	-0.015901342
113	0xbd8193b2	-0.06326999
114	0x3d0385cc	0.03211002
115	0xbd04a147	-0.03238037
116	0xbc5af238	-0.0133634135
117	0x3cf838e8	0.030300573
118	0xbd7e69a4	-0.062112466
119	0x3ce1b7c4	0.027553447
120	0x3c08b718	0.008344434
121	0xbc068728	-0.008210935
122	0xbdac0f24	-0.08401325
123	0x3d9735c7	0.07383304
124	0xbd62c492	-0.055363245
125	0xbc831e60	-0.016005695
126	0x3d391aca	0.045191564
127	0x3d1f8596	0.038945757
128	0xbd6e23d7	-0.05813965
129	0x3c139ef8	0.009010069
130	0xbd0e9937	-0.034814086
131	0x3da5e28b	0.0809985
132	0xbd850802	-0.06495668
133	0xbd27361a	-0.04082308
134	0xbd9514ce	-0.07279359
135	0x3d878b5b	0.06618377
136	0xbd1c94fa	-0.038228013
137	0x3cf15f48	0.029464379
138	0xbd41f3a2	-0.047351487
139	0xbdb06f32	-0.08614959
140	0xbd8777d6	-0.06614654
141	0x3d59bf52	0.053160973
142	0xbd845658	-0.06461781
143	0xbbcc9ac0	-0.0062440336
144	0xbd19c12a	-0.03753773
145	0x3d4a4ba2	0.049388535
146	0x3c765178	0.015034072
147	0xbca75e14	-0.020430602
148	0x3da4b19d	0.080416895
149	0x3d550a4e	0.05201178
150	0x3ca11978	0.019665465
151	0xbda3e835	-0.08003274
152	0xbc5c60e8	-0.013450839
153	0xbbf7f9c0	-0.0075676143
154	0x3d47bdc6	0.048764966
155	0x3db23659	0.08701772
156	0x3d0d7470	0.03453487
157	0x3d1af8d6	0.037834965
158	0xbdb22e68	-0.087002575
159	0xbd5ae691	-0.05344254
160	0xbd6af31c	-0.057360753
161	0xbc8e49e4	-0.017369218
162	0x3d4cb6fe	0.049979202
163	0xbbc83840	-0.006110221
164	0x3d39f072	0.045395322
165	0xbcc6ca5c	-0.024266414
166	0x3d5497f2	0.05190272
167	0xbb3616a0	-0.0027784482
168	0xbd7bac11	-0.061443392
169	0xbd87a3d8	-0.066230476
170	0xbd84ff26	-0.06493978
171	0x3caa8754	0.020816483
172	0xbda4330a	-0.080175474
173	0xbd4dcd30	-0.05024451
174	0xbda32625	-0.0796626
175	0xbd97d1d6	-0.0741307
176	0x3d13264e	0.035925202
177	0x3dab97c3	0.083785556
178	0x3d352dde	0.044233195
179	0x3d24ee0a	0.040266074
180	0xbda38aeb	-0.07985481
181	0xbc6c4038	-0.014419608
182	0xbdb2533a	-0.087072805
183	0xbd587b2f	-0.052851852
184	0x3d141754	0.03615506
185	0xbd883eb6	-0.06652586
186	0x3caeab8c	0.021322034
187	0x3d97d185	0.074130096
188	0x3d0bbdde	0.03411662
189	0xbd5d53ed	-0.054035116
190	0xbd24f495	-0.040272314
191	0x3d82548f	0.063637845
192	0xbd51a417	-0.05118188
193	0x3d5b24fa	0.05350206
194	0x3da34b69	0.07973368
195	0x3ba75ea0	0.0051077157
196	0xbc0e03f0	-0.008667931
197	0x3db16afb	0.08662983
198	0x3da30899	0.07960624
199	0x3d1ba41e	0.03799831
200	0x3c956cbc	0.018240325
201	0x3d3824ba	0.0449569
202	0x3bbccc30	0.0057616457
203	0x3d8f1a75	0.06987468
204	0x3d5297d6	0.051414333
205	0xbd355962	-0.044274695
206	0xbd9db94d	-0.07701359
207	0x3db08e07	0.086208396
208	0xbc687548	-0.014188118
209	0x3bf1adc0	0.007375449
210	0xbd99eb0d	-0.075155355
211	0xbc3d1c80	-0.011542439
212	0x3d984559	0.07435102
213	0xbd81ea9b	-0.063435756
214	0xbd368c6f	-0.04456752
215	0x3d44eb42	0.04807592
216	0xbd552a9f	-0.0520426
217	0x3cdfce84	0.027320154
218	0xbd8f79e0	-0.07005668
219	0xbd5868a2	-0.05283416
220	0x3cbcda14	0.023053207
221	0x3d6c2576	0.057652913
222	0x3da0b32d	0.07846675
223	0xbd934b4f	-0.07192098
224	0x3d8a682f	0.06758153
225	0xbdb23d2d	-0.087030746
226	0xbd372728	-0.044715077
227	0xbd745bb7	-0.05965778
228	0x3d8ca67b	0.06867691
229	0x3d56d5f6	0.052450143
230	0x3d693f32	0.056945033
231	0x3db1da0d	0.08684168
232	0x3c98e224	0.01866252
233	0x3d80e8d7	0.06294411
234	0xbd29db28	-0.04146877
235	0x3d992ca7	0.0747922
236	0x3db105eb	0.08643707
237	0x3da6911f	0.081331484
238	0x3bb40280	0.005493462
239	0x3c3ad928	0.011404313
240	0x3daf1d65	0.085505284
241	0x3dae536d	0.08512006
242	0xbc711da8	-0.014716543
243	0xbd9e49eb	-0.077289425
244	0x3bf98630	0.0076148733
245	0x3d831bdf	0.064018
246	0x3d86e201	0.065860756
247	0xbd8d4b1c	-0.068990916
248	0xbcfe049c	-0.031008057
249	0xbd6df542	-0.058095224
250	0x3cbe0d48	0.023199692
251	0x3d9482d3	0.07251515
252	0xbd8f2de5	-0.069911756
253	0x3d06d2f2	0.032916017
254	0x3d0dabac	0.034587547
255	0x3cb14f74	0.021644332

bias f4 [64]
0	0xbd963f26	-0.07336263
1	0xbd070769	-0.03296605
2	0x3b7bde40	0.0038432032
3	0x3da19cdb	0.07891246
4	0x3d2e8e16	0.042615972
5	0xbc953c94	-0.018217362
6	0x3c692640	0.014230311
7	0xbc6bb330	-0.014385983
8	0xbd215a62	-0.039392836
9	0x3d92429f	0.07141613
10	0xbdb123e1	-0.086494215
11	0x3b626ba0	0.0034549013
12	0xbd1449e1	-0.03620327
13	0xbd87e7d7	-0.06636017
14	0xbd94c165	-0.072634496
15	0xbd58e04a	-0.052948274
16	0xbd8bb765	-0.06822089
17	0xbbc9d840	-0.006159812
18	0xbc23c2d0	-0.009995177
19	0xbd841233	-0.06448784
20	0xbd057257	-0.032579746
21	0x3c791340	0.015202343
22	0xbc97dee4	-0.0185389
23	0x3d875705	0.066083945
24	0xbc665010	-0.014057174
25	0xbc05b980	-0.008161902
26	0xbd538aa2	-0.051645882
27	0x3ce4f1a0	0.027947247
28	0x3b77d900	0.003781855
29	0xbd6ba5be	-0.05753111
30	0xbd42b56a	-0.04753629
31	0xbdaaa1a6	-0.08331613
32	0xbc9f7aa0	-0.019467652
33	0x3d621e52	0.055204697
34	0xbdac86a4	-0.08424118
35	0x3c974f5c	0.018470459
36	0x3d881ed1	0.06646503
37	0x3d804d77	0.06264775
38	0x3d8a591f	0.0675528
39	0xbd0bd052	-0.034134217
40	0x3d0135c8	0.03154543
41	0xbd349e74	-0.044096425
42	0x3d64bcc6	0.05584409
43	0xbc3cae80	-0.011516213
44	0x3d20635e	0.039157264
45	0xbc99b214	-0.018761672
46	0x3cf0ef78	0.029411063
47	0x3db3f233	0.0878643
48	0x3d395f7e	0.045257084
49	0xbcb36aa8	-0.021901444
50	0x3b53ee60	0.0032338127
51	0xbc87c278	-0.016572222
52	0x3da84317	0.08215921
53	0x3d5e52f6	0.054278336
54	0xbc6ee3d0	-0.014580682
55	0xbd8ba1e3	-0.06817987
56	0xbd7d1f38	-0.06179735
57	0xbd055775	-0.03255411
58	0x3ca494f4	0.020090558
59	0xbcc435d0	-0.023951441
60	0xba1fc500	-0.0006094724
61	0x3cdd0e20	0.026984274
62	0x3d9a4067	0.07531815
63	0xbd9d81b4	-0.076907545

weight f4 [10, 64]
0	0xbdc24fd6	-0.09487884
1	0xbdc54254	-0.09631792
2	0x3df8936e	0.12137495
3	0xbd8ef202	-0.06979753
4	0x3d048a94	0.03235872
5	0x3bf16cc0	0.0073677003
6	0xbcb0ac68	-0.021566585
7	0xbdb43090	-0.08798325
8	0x3cc87c38	0.024473295
9	0x3c352db0	0.011058256
10	0x3d88669e	0.06660198
11	0x3d4eb3f8	0.0504646
12	0x3df66c04	0.12032321
13	0x3ab04a00	0.0013449788
14	0xbdffc45e	-0.12488626
15	0xbd8ad84a	-0.06779535
16	0x3d0af418	0.033924192
17	0x3c1ec5f0	0.009690747
18	0x3de3299e	0.11091922
19	0x3c449320	0.011997968
20	0xbd8c4810	-0.06849682
21	0x3da73644	0.08164647
22	0x3dd336d2	0.103131905
23	0xbdeb54a4	-0.11490753
24	0x3d81e67a	0.06342788
25	0x3db9bcde	0.09069227
26	0x3c195620	0.009358913
27	0xbca7b6a0	-0.020472825
28	0xbdf22e1c	-0.11825201
29	0x3bcb67c0	0.0062074363
30	0xbde26860	-0.11055064
31	0xbd276920	-0.04087174
32	0xb931f000	-0.00016969442
33	0xbddcea6c	-0.107869
34	0xbd337e9c	-0.043821916
35	0x3dfd1296	0.123570606
36	0x3dc53804	0.09629825
37	0x3cadeb50	0.02123037
38	0x3ddbfcfa	0.10741611
39	0x3cc37538	0.023859605
40	0x3db0c7da	0.08631869
41	0x3ca18748	0.019717827
42	0x3cad41d0	0.021149546
43	0xbd07d8a0	-0.033165574
44	0x3de63926	0.11241369
45	0x3ddc5eb6	0.10760252
46	0x3d0c7dac	0.034299538
47	0x3de448dc	0.11146709
48	0x3d8e9fa2	0.06964041
49	0x3de613e0	0.112342596
50	0xbc284f80	-0.0102728605
51	0xbdcaedc4	-0.099086314
52	0xbbc9f8e0	-0.0061637014
53	0x39b8e600	0.00035266578
54	0x3cdaa2e0	0.026688993
55	0x3cd73628	0.02627094
56	0x3c877308	0.016534343
57	0xbdb437c2	-0.087996975
58	0x3da692ce	0.081334695
59	0xbc151010	-0.009098068
60	0xbd26cd34	-0.04072304
61	0x3df57558	0.11985272
62	0xbcf3a1f0	-0.029740304
63	0xbdb627aa	-0.08894284
64	0xbdde1a42	-0.10844852
65	0xbda3e4a0	-0.08002591
66	0x3db41730	0.08793485
67	0xbd7783ac	-0.060428306
68	0xbd74501c	-0.05964671
69	0xbdce5958	-0.10075635
70	0xbdf977d8	-0.121810615
71	0xbc422960	-0.011850685
72	0x3d99cf9c	0.075103015
73	0x3cd41e20	0.025893271
74	0x3dbd9c1e	0.092582926
75	0x3d802f14	0.062589794
76	0xbd0407e8	-0.032234102
77	0xbdfd44e0	-0.123666525
78	0x3dd2a524	0.10285404
79	0x3d8f64ce	0.07001649
80	0x3c026be0	0.00796029
81	0xbd0d87d8	-0.03455338
82	0x3ce36a68	0.0277607
83	0xbc52f5b0	-0.012875959
84	0xbd4becec	-0.049786493
85	0xbdaa1ccc	-0.08306274
86	0x3d81764a	0.0632139
87	0x3d84f650	0.06492293
88	0xbb830d00	-0.0039993525
89	0xbdf95870	-0.12175071
90	0x3d20bdc0	0.03924346
91	0x3d159de0	0.036527514
92	0xbd8f83d0	-0.07007563
93	0xbcee6a00	-0.02910328
94	0x3db6596c	0.089037746
95	0xbcf5d520	-0.030008852
96	0x3dd7eac6	0.10542826
97	0xbdcdc7f2	-0.10047902
98	0x3d2d1a50	0.04226142
99	0xbd2beee8	-0.041975886
100	0x3dfd53fa	0.12369533
101	0xbbf61620	-0.0075099617
102	0x3df0442a	0.11731751
103	0x3c428f20	0.011874944
104	0xbdcd4aec	-0.10024056
105	0x3dda6d48	0.10665375
106	0x3dda0078	0.10644621
107	0x3d45990c	0.04824166
108	0x3d56b934	0.052422717
109	0x3ded1e6c	0.11578068
110	0x3ded3ba8	0.11583644
111	0xbdfcea40	-0.12349367
112	0xbd65c72c	-0.05609815
113	0x3d562bb4	0.052287772
114	0xbdc17936	-0.09446947
115	0x3cf355e8	0.02970405
116	0x3de622e6	0.11237125
117	0xbd9b7464	-0.07590559
118	0xbdd23e2e	-0.10265766
119	0xbd54b4c8	-0.05193022
120	0xbd1a8904	-0.037728325
121	0xbdcce5f4	-0.100047976
122	0xbddad498	-0.1068508
123	0x3dcc5514	0.09977165
124	0xbcfa4240	-0.030549169
125	0x3dbe7ed0	0.09301531
126	0xbc7ac7f0	-0.015306458
127	0xbdd5eb66	-0.10445289
128	0x3dcda60a	0.10041435
129	0x3dc61ec2	0.09673835
130	0x3cb7b4d0	0.022425085
131	0x3dc25c86	0.09490304
132	0x3d8e9e6a	0.06963809
133	0x3d3457e8	0.044029146
134	0xbd0b032c	-0.03393857
135	0xbd90080a	-0.07032783
136	0x3da318f6	0.07963745
137	0x3bf7dbe0	0.007564053
138	0x3d3d6798	0.046241373
139	0x3d9d4524	0.07679203
140	0x3c9d2718	0.01918368
141	0xbdd5f9b4	-0.10448018
142	0xbd062658	-0.03275141
143	0x3d3a40b8	0.045471877
144	0xbca95788	-0.020671621
145	0x3cbec8b8	0.02328907
146	0xbddae46e	-0.10688101
147	0x3de243b6	0.11048071
148	0x3ceb3188	0.028710142
149	0x3c4d8e60	0.012546152
150	0x3da9aac8	0.08284527
151	0x3db06f4e	0.0861498
152	0xbde27a70	-0.11058509
153	0xbdc21818	-0.09477252
154	0x3df65c56	0.120293304
155	0x3bf68180	0.007522762
156	0xbdf5a12e	-0.11993633
157	0x3d53792c	0.05162923
158	0x3dcb20fa	0.09918399
159	0xbdbaa6c4	-0.09113839
160	0x3d56bfec	0.052429125
161	0xbdf59f24	-0.11993244
162	0x3c3b4aa0	0.011431366
163	0x3c211e30	0.009833857
164	0x3c9807c0	0.018558383
165	0xbdcd2318	-0.10016459
166	0x3da5718e	0.080782995
167	0x3ddc2396	0.10748975
168	0x3db5265c	0.08845207
169	0x3cd9b068	0.026573375
170	0xbd734af8	-0.059397668
171	0x3d8d9594	0.069132954
172	0xbd162e64	-0.036665335
173	0xbdc82766	-0.0977314
174	0xbdb462a0	-0.08807874
175	0x3d6a1ee4	0.057158366
176	0x3ddee1e6	0.108829305
177	0xbb25bc80	-0.0025289357
178	0xbc1129c0	-0.008860052
179	0xbbd2c320	-0.006431952
180	0x3dd27622	0.10276438
181	0xbd6d4c84	-0.0579343
182	0xbde9934a	-0.11405046
183	0x3d9cc542	0.076548114
184	0x3dfeef0c	0.12447938
185	0xbd83ba2a	-0.06431992
186	0xbd5c0f84	-0.053725734
187	0x3d61c210	0.055116713
188	0x3d8f196c	0.06987271
189	0xbdccb59a	-0.09995575
190	0xbdafce54	-0.08584276
191	0x3da5fa0e	0.08104335
192	0xbc0c2060	-0.008552641
193	0xbdff72e2	-0.12473084
194	0x3d9452b2	0.072423354
195	0xbd0e1050	-0.034683526
196	0x3c2fb870	0.010725126
197	0x3d34b1d4	0.044114903
198	0x3dbd0e56	0.0923125
199	0x3d93b092	0.072114125
200	0xbc47f920	-0.012205392
201	0x3df889d6	0.12135665
202	0xbd8dc8b0	-0.06923044
203	0x3cad9570	0.021189421
204	0x3c830e38	0.015997991
205	0x3c4a6e90	0.012355462
206	0xbc53fba0	-0.01293841
207	0xbd846846	-0.06465201
208	0xbda5ffb4	-0.08105412
209	0x3c3c0580	0.011475921
210	0x3de54484	0.11194709
211	0xbc1eaf50	-0.009685352
212	0xbd848884	-0.06471351
213	0x3dd90e40	0.10598421
214	0xbd8af32c	-0.067846626
215	0xbd22dc80	-0.039761066
216	0x3da60594	0.08106533
217	0x3d81d8e6	0.06340198
218	0xbdda8d2e	-0.10671459
219	0x3d915dc2	0.07097961
220	0x3d9b8aa0	0.075948
221	0xbdb21c7c	-0.08696839
222	0xbd2e8d14	-0.04261501
223	0x3c890cf0	0.016729802
224	0x3dd7202a	0.10504182
225	0x3dd32476	0.10309689
226	0xbdac5c1a	-0.084160045
227	0x3d8f0d08	0.069849074
228	0xbdf5b4d8	-0.11997384
229	0xbcd114b8	-0.025522575
230	0xbca147e8	-0.019687608
231	0xbd275fb4	-0.040862754
232	0xb9046400	-0.00012625754
233	0xba8e5780	-0.0010859817
234	0x3d1a5194	0.037675455
235	0x3d94f97e	0.07274149
236	0xbd97355a	-0.07383223
237	0xbcd389d0	-0.02582255
238	0x3c71b2a0	0.01475206
239	0xbd610558	-0.054936737
240	0xbdb225ec	-0.08698639
241	0x3dce3100	0.1006794
242	0x3dfb5d10	0.1227361
243	0xbd337890	-0.04381615
244	0xbd700324	-0.058596745
245	0x3b05be00	0.0020407438
246	0xbd3a1a98	-0.045435518
247	0x3dc8113a	0.09768911
248	0x3db1c832	0.08680762
249	0x3def07c8	0.11671406
250	0xbc487990	-0.012236014
251	0x3de81da8	0.113337815
252	0xbd0beb08	-0.03415969
253	0x3c858a40	0.016301274
254	0x3d4c375c	0.049857482
255	0xbd460c58	-0.048351616

bias f4 [10]
0	0x3df1ca10	0.118061185
1	0xbdc94474	-0.098275095
2	0x3d407f68	0.046996504
3	0x3d37f30c	0.044909522
4	0x3c15a060	0.009132475
5	0x3daa54e2	0.08316971
6	0xbdc5bd30	-0.09655225
7	0xbc469850	-0.012121275
8	0xbd8cffce	-0.06884728
9	0x3dcad7f2	0.099044695
